digraph "graph" {
node [shape="record"]
"Conv_0(Conv)" [label="{Conv2D}"]
"LeakyRelu_1.mul(LeakyRelu)" [label="{Binary}"]
"LeakyRelu_1.max(LeakyRelu)" [label="{Binary}"]
"Conv_2(Conv)" [label="{Conv2D}"]
"LeakyRelu_3.mul(LeakyRelu)" [label="{Binary}"]
"LeakyRelu_3.max(LeakyRelu)" [label="{Binary}"]
"Conv_4(Conv)" [label="{Conv2D}"]
"LeakyRelu_5.mul(LeakyRelu)" [label="{Binary}"]
"LeakyRelu_5.max(LeakyRelu)" [label="{Binary}"]
"Conv_6(Conv)" [label="{Conv2D}"]
"LeakyRelu_7.mul(LeakyRelu)" [label="{Binary}"]
"LeakyRelu_7.max(LeakyRelu)" [label="{Binary}"]
"Conv_8(Conv)" [label="{Conv2D}"]
"LeakyRelu_9.mul(LeakyRelu)" [label="{Binary}"]
"LeakyRelu_9.max(LeakyRelu)" [label="{Binary}"]
"Conv_10(Conv)" [label="{Conv2D}"]
"LeakyRelu_11.mul(LeakyRelu)" [label="{Binary}"]
"LeakyRelu_11.max(LeakyRelu)" [label="{Binary}"]
"Conv_12(Conv)" [label="{Conv2D}"]
"LeakyRelu_13.mul(LeakyRelu)" [label="{Binary}"]
"LeakyRelu_13.max(LeakyRelu)" [label="{Binary}"]
"Conv_14(Conv)" [label="{Conv2D}"]
"LeakyRelu_15.mul(LeakyRelu)" [label="{Binary}"]
"LeakyRelu_15.max(LeakyRelu)" [label="{Binary}"]
"Conv_16(Conv)" [label="{Conv2D}"]
"LeakyRelu_17.mul(LeakyRelu)" [label="{Binary}"]
"LeakyRelu_17.max(LeakyRelu)" [label="{Binary}"]
"Conv_18(Conv)" [label="{Conv2D}"]
"LeakyRelu_19.mul(LeakyRelu)" [label="{Binary}"]
"LeakyRelu_19.max(LeakyRelu)" [label="{Binary}"]
"Conv_20(Conv)" [label="{Conv2D}"]
"LeakyRelu_21.mul(LeakyRelu)" [label="{Binary}"]
"LeakyRelu_21.max(LeakyRelu)" [label="{Binary}"]
"Conv_22(Conv)" [label="{Conv2D}"]
"LeakyRelu_23.mul(LeakyRelu)" [label="{Binary}"]
"LeakyRelu_23.max(LeakyRelu)" [label="{Binary}"]
"Conv_24(Conv)" [label="{Conv2D}"]
"LeakyRelu_25.mul(LeakyRelu)" [label="{Binary}"]
"LeakyRelu_25.max(LeakyRelu)" [label="{Binary}"]
"Conv_26(Conv)" [label="{Conv2D}"]
"LeakyRelu_27.mul(LeakyRelu)" [label="{Binary}"]
"LeakyRelu_27.max(LeakyRelu)" [label="{Binary}"]
"Conv_28(Conv)" [label="{Conv2D}"]
"LeakyRelu_29.mul(LeakyRelu)" [label="{Binary}"]
"LeakyRelu_29.max(LeakyRelu)" [label="{Binary}"]
"Conv_30(Conv)" [label="{Conv2D}"]
"LeakyRelu_31.mul(LeakyRelu)" [label="{Binary}"]
"LeakyRelu_31.max(LeakyRelu)" [label="{Binary}"]
"Conv_32(Conv)" [label="{Conv2D}"]
"LeakyRelu_33.mul(LeakyRelu)" [label="{Binary}"]
"LeakyRelu_33.max(LeakyRelu)" [label="{Binary}"]
"Conv_34(Conv)" [label="{Conv2D}"]
"LeakyRelu_35.mul(LeakyRelu)" [label="{Binary}"]
"LeakyRelu_35.max(LeakyRelu)" [label="{Binary}"]
"Conv_36(Conv)" [label="{Conv2D}"]
"LeakyRelu_37.mul(LeakyRelu)" [label="{Binary}"]
"LeakyRelu_37.max(LeakyRelu)" [label="{Binary}"]
"Conv_38(Conv)" [label="{Conv2D}"]
"LeakyRelu_39.mul(LeakyRelu)" [label="{Binary}"]
"LeakyRelu_39.max(LeakyRelu)" [label="{Binary}"]
"Conv_40(Conv)" [label="{Conv2D}"]
"LeakyRelu_41.mul(LeakyRelu)" [label="{Binary}"]
"LeakyRelu_41.max(LeakyRelu)" [label="{Binary}"]
"Conv_42(Conv)" [label="{Conv2D}"]
"LeakyRelu_43.mul(LeakyRelu)" [label="{Binary}"]
"LeakyRelu_43.max(LeakyRelu)" [label="{Binary}"]
"Conv_44(Conv)" [label="{Conv2D}"]
"LeakyRelu_45.mul(LeakyRelu)" [label="{Binary}"]
"LeakyRelu_45.max(LeakyRelu)" [label="{Binary}"]
"Conv_46(Conv)" [label="{Conv2D}"]
"LeakyRelu_47.mul(LeakyRelu)" [label="{Binary}"]
"LeakyRelu_47.max(LeakyRelu)" [label="{Binary}"]
"Conv_48(Conv)" [label="{Conv2D}"]
"LeakyRelu_49.mul(LeakyRelu)" [label="{Binary}"]
"LeakyRelu_49.max(LeakyRelu)" [label="{Binary}"]
"Conv_50(Conv)" [label="{Conv2D}"]
"LeakyRelu_51.mul(LeakyRelu)" [label="{Binary}"]
"LeakyRelu_51.max(LeakyRelu)" [label="{Binary}"]
"Conv_52(Conv)" [label="{Conv2D}"]
"LeakyRelu_53.mul(LeakyRelu)" [label="{Binary}"]
"LeakyRelu_53.max(LeakyRelu)" [label="{Binary}"]
"Conv_54(Conv)" [label="{Conv2D}"]
"LeakyRelu_55.mul(LeakyRelu)" [label="{Binary}"]
"LeakyRelu_55.max(LeakyRelu)" [label="{Binary}"]
"Conv_56(Conv)" [label="{Conv2D}"]
"LeakyRelu_57.mul(LeakyRelu)" [label="{Binary}"]
"LeakyRelu_57.max(LeakyRelu)" [label="{Binary}"]
"Conv_58(Conv)" [label="{Conv2D}"]
"LeakyRelu_59.mul(LeakyRelu)" [label="{Binary}"]
"LeakyRelu_59.max(LeakyRelu)" [label="{Binary}"]
"Upsample_76(Upsample)" [label="{ResizeImage}"]
"Add_77(binary_add)" [label="{Binary}"]
"Conv_78(Conv)" [label="{Conv2D}"]
"LeakyRelu_79.mul(LeakyRelu)" [label="{Binary}"]
"LeakyRelu_79.max(LeakyRelu)" [label="{Binary}"]
"Upsample_96(Upsample)" [label="{ResizeImage}"]
"Add_97(binary_add)" [label="{Binary}"]
"Conv_98(Conv)" [label="{Conv2D}"]
"LeakyRelu_99.mul(LeakyRelu)" [label="{Binary}"]
"LeakyRelu_99.max(LeakyRelu)" [label="{Binary}"]
"Conv_100(Conv)" [label="{Conv2D}"]
"Conv_101(Conv)" [label="{Conv2D}"]
"LeakyRelu_102.mul(LeakyRelu)" [label="{Binary}"]
"LeakyRelu_102.max(LeakyRelu)" [label="{Binary}"]
"Conv_103(Conv)" [label="{Conv2D}"]
"Conv_104(Conv)" [label="{Conv2D}"]
"LeakyRelu_105.mul(LeakyRelu)" [label="{Binary}"]
"LeakyRelu_105.max(LeakyRelu)" [label="{Binary}"]
"Conv_106(Conv)" [label="{Conv2D}"]
"Concat_107(Concat)" [label="{Concat}"]
"Relu_108.max(Relu)" [label="{Binary}"]
"Conv_109(Conv)" [label="{Conv2D}"]
"Conv_110(Conv)" [label="{Conv2D}"]
"LeakyRelu_111.mul(LeakyRelu)" [label="{Binary}"]
"LeakyRelu_111.max(LeakyRelu)" [label="{Binary}"]
"Conv_112(Conv)" [label="{Conv2D}"]
"Conv_113(Conv)" [label="{Conv2D}"]
"LeakyRelu_114.mul(LeakyRelu)" [label="{Binary}"]
"LeakyRelu_114.max(LeakyRelu)" [label="{Binary}"]
"Conv_115(Conv)" [label="{Conv2D}"]
"Concat_116(Concat)" [label="{Concat}"]
"Relu_117.max(Relu)" [label="{Binary}"]
"Conv_118(Conv)" [label="{Conv2D}"]
"Conv_119(Conv)" [label="{Conv2D}"]
"LeakyRelu_120.mul(LeakyRelu)" [label="{Binary}"]
"LeakyRelu_120.max(LeakyRelu)" [label="{Binary}"]
"Conv_121(Conv)" [label="{Conv2D}"]
"Conv_122(Conv)" [label="{Conv2D}"]
"LeakyRelu_123.mul(LeakyRelu)" [label="{Binary}"]
"LeakyRelu_123.max(LeakyRelu)" [label="{Binary}"]
"Conv_124(Conv)" [label="{Conv2D}"]
"Concat_125(Concat)" [label="{Concat}"]
"Relu_126.max(Relu)" [label="{Binary}"]
"Conv_127(Conv)" [label="{Conv2D}"]
"Conv_135(Conv)" [label="{Conv2D}"]
"Conv_143(Conv)" [label="{Conv2D}"]
"Conv_152(Conv)" [label="{Conv2D}"]
"Conv_160(Conv)" [label="{Conv2D}"]
"Conv_168(Conv)" [label="{Conv2D}"]
"Conv_177(Conv)" [label="{Conv2D}"]
"Conv_185(Conv)" [label="{Conv2D}"]
"Conv_193(Conv)" [label="{Conv2D}"]
"input0" [label="{Input}"]
"475" [label="{Output}"]
"487" [label="{Output}"]
"499" [label="{Output}"]
"512" [label="{Output}"]
"524" [label="{Output}"]
"536" [label="{Output}"]
"549" [label="{Output}"]
"561" [label="{Output}"]
"573" [label="{Output}"]
"Conv_0(Conv)"->"LeakyRelu_1.max(LeakyRelu)" [label="f32[1,8,160,160]"]
"Conv_0(Conv)"->"LeakyRelu_1.mul(LeakyRelu)" [label="f32[1,8,160,160]"]
"LeakyRelu_1.mul(LeakyRelu)"->"LeakyRelu_1.max(LeakyRelu)" [label="f32[1,8,160,160]"]
"LeakyRelu_1.max(LeakyRelu)"->"Conv_2(Conv)" [label="f32[1,8,160,160]"]
"Conv_2(Conv)"->"LeakyRelu_3.max(LeakyRelu)" [label="f32[1,8,160,160]"]
"Conv_2(Conv)"->"LeakyRelu_3.mul(LeakyRelu)" [label="f32[1,8,160,160]"]
"LeakyRelu_3.mul(LeakyRelu)"->"LeakyRelu_3.max(LeakyRelu)" [label="f32[1,8,160,160]"]
"LeakyRelu_3.max(LeakyRelu)"->"Conv_4(Conv)" [label="f32[1,8,160,160]"]
"Conv_4(Conv)"->"LeakyRelu_5.max(LeakyRelu)" [label="f32[1,16,160,160]"]
"Conv_4(Conv)"->"LeakyRelu_5.mul(LeakyRelu)" [label="f32[1,16,160,160]"]
"LeakyRelu_5.mul(LeakyRelu)"->"LeakyRelu_5.max(LeakyRelu)" [label="f32[1,16,160,160]"]
"LeakyRelu_5.max(LeakyRelu)"->"Conv_6(Conv)" [label="f32[1,16,160,160]"]
"Conv_6(Conv)"->"LeakyRelu_7.max(LeakyRelu)" [label="f32[1,16,80,80]"]
"Conv_6(Conv)"->"LeakyRelu_7.mul(LeakyRelu)" [label="f32[1,16,80,80]"]
"LeakyRelu_7.mul(LeakyRelu)"->"LeakyRelu_7.max(LeakyRelu)" [label="f32[1,16,80,80]"]
"LeakyRelu_7.max(LeakyRelu)"->"Conv_8(Conv)" [label="f32[1,16,80,80]"]
"Conv_8(Conv)"->"LeakyRelu_9.max(LeakyRelu)" [label="f32[1,32,80,80]"]
"Conv_8(Conv)"->"LeakyRelu_9.mul(LeakyRelu)" [label="f32[1,32,80,80]"]
"LeakyRelu_9.mul(LeakyRelu)"->"LeakyRelu_9.max(LeakyRelu)" [label="f32[1,32,80,80]"]
"LeakyRelu_9.max(LeakyRelu)"->"Conv_10(Conv)" [label="f32[1,32,80,80]"]
"Conv_10(Conv)"->"LeakyRelu_11.mul(LeakyRelu)" [label="f32[1,32,80,80]"]
"Conv_10(Conv)"->"LeakyRelu_11.max(LeakyRelu)" [label="f32[1,32,80,80]"]
"LeakyRelu_11.mul(LeakyRelu)"->"LeakyRelu_11.max(LeakyRelu)" [label="f32[1,32,80,80]"]
"LeakyRelu_11.max(LeakyRelu)"->"Conv_12(Conv)" [label="f32[1,32,80,80]"]
"Conv_12(Conv)"->"LeakyRelu_13.max(LeakyRelu)" [label="f32[1,32,80,80]"]
"Conv_12(Conv)"->"LeakyRelu_13.mul(LeakyRelu)" [label="f32[1,32,80,80]"]
"LeakyRelu_13.mul(LeakyRelu)"->"LeakyRelu_13.max(LeakyRelu)" [label="f32[1,32,80,80]"]
"LeakyRelu_13.max(LeakyRelu)"->"Conv_14(Conv)" [label="f32[1,32,80,80]"]
"Conv_14(Conv)"->"LeakyRelu_15.mul(LeakyRelu)" [label="f32[1,32,40,40]"]
"Conv_14(Conv)"->"LeakyRelu_15.max(LeakyRelu)" [label="f32[1,32,40,40]"]
"LeakyRelu_15.mul(LeakyRelu)"->"LeakyRelu_15.max(LeakyRelu)" [label="f32[1,32,40,40]"]
"LeakyRelu_15.max(LeakyRelu)"->"Conv_16(Conv)" [label="f32[1,32,40,40]"]
"Conv_16(Conv)"->"LeakyRelu_17.mul(LeakyRelu)" [label="f32[1,64,40,40]"]
"Conv_16(Conv)"->"LeakyRelu_17.max(LeakyRelu)" [label="f32[1,64,40,40]"]
"LeakyRelu_17.mul(LeakyRelu)"->"LeakyRelu_17.max(LeakyRelu)" [label="f32[1,64,40,40]"]
"LeakyRelu_17.max(LeakyRelu)"->"Conv_18(Conv)" [label="f32[1,64,40,40]"]
"Conv_18(Conv)"->"LeakyRelu_19.mul(LeakyRelu)" [label="f32[1,64,40,40]"]
"Conv_18(Conv)"->"LeakyRelu_19.max(LeakyRelu)" [label="f32[1,64,40,40]"]
"LeakyRelu_19.mul(LeakyRelu)"->"LeakyRelu_19.max(LeakyRelu)" [label="f32[1,64,40,40]"]
"LeakyRelu_19.max(LeakyRelu)"->"Conv_20(Conv)" [label="f32[1,64,40,40]"]
"Conv_20(Conv)"->"LeakyRelu_21.max(LeakyRelu)" [label="f32[1,64,40,40]"]
"Conv_20(Conv)"->"LeakyRelu_21.mul(LeakyRelu)" [label="f32[1,64,40,40]"]
"LeakyRelu_21.mul(LeakyRelu)"->"LeakyRelu_21.max(LeakyRelu)" [label="f32[1,64,40,40]"]
"LeakyRelu_21.max(LeakyRelu)"->"Conv_54(Conv)" [label="f32[1,64,40,40]"]
"LeakyRelu_21.max(LeakyRelu)"->"Conv_22(Conv)" [label="f32[1,64,40,40]"]
"Conv_22(Conv)"->"LeakyRelu_23.max(LeakyRelu)" [label="f32[1,64,20,20]"]
"Conv_22(Conv)"->"LeakyRelu_23.mul(LeakyRelu)" [label="f32[1,64,20,20]"]
"LeakyRelu_23.mul(LeakyRelu)"->"LeakyRelu_23.max(LeakyRelu)" [label="f32[1,64,20,20]"]
"LeakyRelu_23.max(LeakyRelu)"->"Conv_24(Conv)" [label="f32[1,64,20,20]"]
"Conv_24(Conv)"->"LeakyRelu_25.mul(LeakyRelu)" [label="f32[1,128,20,20]"]
"Conv_24(Conv)"->"LeakyRelu_25.max(LeakyRelu)" [label="f32[1,128,20,20]"]
"LeakyRelu_25.mul(LeakyRelu)"->"LeakyRelu_25.max(LeakyRelu)" [label="f32[1,128,20,20]"]
"LeakyRelu_25.max(LeakyRelu)"->"Conv_26(Conv)" [label="f32[1,128,20,20]"]
"Conv_26(Conv)"->"LeakyRelu_27.max(LeakyRelu)" [label="f32[1,128,20,20]"]
"Conv_26(Conv)"->"LeakyRelu_27.mul(LeakyRelu)" [label="f32[1,128,20,20]"]
"LeakyRelu_27.mul(LeakyRelu)"->"LeakyRelu_27.max(LeakyRelu)" [label="f32[1,128,20,20]"]
"LeakyRelu_27.max(LeakyRelu)"->"Conv_28(Conv)" [label="f32[1,128,20,20]"]
"Conv_28(Conv)"->"LeakyRelu_29.max(LeakyRelu)" [label="f32[1,128,20,20]"]
"Conv_28(Conv)"->"LeakyRelu_29.mul(LeakyRelu)" [label="f32[1,128,20,20]"]
"LeakyRelu_29.mul(LeakyRelu)"->"LeakyRelu_29.max(LeakyRelu)" [label="f32[1,128,20,20]"]
"LeakyRelu_29.max(LeakyRelu)"->"Conv_30(Conv)" [label="f32[1,128,20,20]"]
"Conv_30(Conv)"->"LeakyRelu_31.max(LeakyRelu)" [label="f32[1,128,20,20]"]
"Conv_30(Conv)"->"LeakyRelu_31.mul(LeakyRelu)" [label="f32[1,128,20,20]"]
"LeakyRelu_31.mul(LeakyRelu)"->"LeakyRelu_31.max(LeakyRelu)" [label="f32[1,128,20,20]"]
"LeakyRelu_31.max(LeakyRelu)"->"Conv_32(Conv)" [label="f32[1,128,20,20]"]
"Conv_32(Conv)"->"LeakyRelu_33.max(LeakyRelu)" [label="f32[1,128,20,20]"]
"Conv_32(Conv)"->"LeakyRelu_33.mul(LeakyRelu)" [label="f32[1,128,20,20]"]
"LeakyRelu_33.mul(LeakyRelu)"->"LeakyRelu_33.max(LeakyRelu)" [label="f32[1,128,20,20]"]
"LeakyRelu_33.max(LeakyRelu)"->"Conv_34(Conv)" [label="f32[1,128,20,20]"]
"Conv_34(Conv)"->"LeakyRelu_35.max(LeakyRelu)" [label="f32[1,128,20,20]"]
"Conv_34(Conv)"->"LeakyRelu_35.mul(LeakyRelu)" [label="f32[1,128,20,20]"]
"LeakyRelu_35.mul(LeakyRelu)"->"LeakyRelu_35.max(LeakyRelu)" [label="f32[1,128,20,20]"]
"LeakyRelu_35.max(LeakyRelu)"->"Conv_36(Conv)" [label="f32[1,128,20,20]"]
"Conv_36(Conv)"->"LeakyRelu_37.mul(LeakyRelu)" [label="f32[1,128,20,20]"]
"Conv_36(Conv)"->"LeakyRelu_37.max(LeakyRelu)" [label="f32[1,128,20,20]"]
"LeakyRelu_37.mul(LeakyRelu)"->"LeakyRelu_37.max(LeakyRelu)" [label="f32[1,128,20,20]"]
"LeakyRelu_37.max(LeakyRelu)"->"Conv_38(Conv)" [label="f32[1,128,20,20]"]
"Conv_38(Conv)"->"LeakyRelu_39.max(LeakyRelu)" [label="f32[1,128,20,20]"]
"Conv_38(Conv)"->"LeakyRelu_39.mul(LeakyRelu)" [label="f32[1,128,20,20]"]
"LeakyRelu_39.mul(LeakyRelu)"->"LeakyRelu_39.max(LeakyRelu)" [label="f32[1,128,20,20]"]
"LeakyRelu_39.max(LeakyRelu)"->"Conv_40(Conv)" [label="f32[1,128,20,20]"]
"Conv_40(Conv)"->"LeakyRelu_41.max(LeakyRelu)" [label="f32[1,128,20,20]"]
"Conv_40(Conv)"->"LeakyRelu_41.mul(LeakyRelu)" [label="f32[1,128,20,20]"]
"LeakyRelu_41.mul(LeakyRelu)"->"LeakyRelu_41.max(LeakyRelu)" [label="f32[1,128,20,20]"]
"LeakyRelu_41.max(LeakyRelu)"->"Conv_42(Conv)" [label="f32[1,128,20,20]"]
"Conv_42(Conv)"->"LeakyRelu_43.max(LeakyRelu)" [label="f32[1,128,20,20]"]
"Conv_42(Conv)"->"LeakyRelu_43.mul(LeakyRelu)" [label="f32[1,128,20,20]"]
"LeakyRelu_43.mul(LeakyRelu)"->"LeakyRelu_43.max(LeakyRelu)" [label="f32[1,128,20,20]"]
"LeakyRelu_43.max(LeakyRelu)"->"Conv_44(Conv)" [label="f32[1,128,20,20]"]
"Conv_44(Conv)"->"LeakyRelu_45.mul(LeakyRelu)" [label="f32[1,128,20,20]"]
"Conv_44(Conv)"->"LeakyRelu_45.max(LeakyRelu)" [label="f32[1,128,20,20]"]
"LeakyRelu_45.mul(LeakyRelu)"->"LeakyRelu_45.max(LeakyRelu)" [label="f32[1,128,20,20]"]
"LeakyRelu_45.max(LeakyRelu)"->"Conv_46(Conv)" [label="f32[1,128,20,20]"]
"LeakyRelu_45.max(LeakyRelu)"->"Conv_56(Conv)" [label="f32[1,128,20,20]"]
"Conv_46(Conv)"->"LeakyRelu_47.mul(LeakyRelu)" [label="f32[1,128,10,10]"]
"Conv_46(Conv)"->"LeakyRelu_47.max(LeakyRelu)" [label="f32[1,128,10,10]"]
"LeakyRelu_47.mul(LeakyRelu)"->"LeakyRelu_47.max(LeakyRelu)" [label="f32[1,128,10,10]"]
"LeakyRelu_47.max(LeakyRelu)"->"Conv_48(Conv)" [label="f32[1,128,10,10]"]
"Conv_48(Conv)"->"LeakyRelu_49.mul(LeakyRelu)" [label="f32[1,256,10,10]"]
"Conv_48(Conv)"->"LeakyRelu_49.max(LeakyRelu)" [label="f32[1,256,10,10]"]
"LeakyRelu_49.mul(LeakyRelu)"->"LeakyRelu_49.max(LeakyRelu)" [label="f32[1,256,10,10]"]
"LeakyRelu_49.max(LeakyRelu)"->"Conv_50(Conv)" [label="f32[1,256,10,10]"]
"Conv_50(Conv)"->"LeakyRelu_51.mul(LeakyRelu)" [label="f32[1,256,10,10]"]
"Conv_50(Conv)"->"LeakyRelu_51.max(LeakyRelu)" [label="f32[1,256,10,10]"]
"LeakyRelu_51.mul(LeakyRelu)"->"LeakyRelu_51.max(LeakyRelu)" [label="f32[1,256,10,10]"]
"LeakyRelu_51.max(LeakyRelu)"->"Conv_52(Conv)" [label="f32[1,256,10,10]"]
"Conv_52(Conv)"->"LeakyRelu_53.mul(LeakyRelu)" [label="f32[1,256,10,10]"]
"Conv_52(Conv)"->"LeakyRelu_53.max(LeakyRelu)" [label="f32[1,256,10,10]"]
"LeakyRelu_53.mul(LeakyRelu)"->"LeakyRelu_53.max(LeakyRelu)" [label="f32[1,256,10,10]"]
"LeakyRelu_53.max(LeakyRelu)"->"Conv_58(Conv)" [label="f32[1,256,10,10]"]
"Conv_54(Conv)"->"LeakyRelu_55.mul(LeakyRelu)" [label="f32[1,64,40,40]"]
"Conv_54(Conv)"->"LeakyRelu_55.max(LeakyRelu)" [label="f32[1,64,40,40]"]
"LeakyRelu_55.mul(LeakyRelu)"->"LeakyRelu_55.max(LeakyRelu)" [label="f32[1,64,40,40]"]
"LeakyRelu_55.max(LeakyRelu)"->"Add_97(binary_add)" [label="f32[1,64,40,40]"]
"Conv_56(Conv)"->"LeakyRelu_57.mul(LeakyRelu)" [label="f32[1,64,20,20]"]
"Conv_56(Conv)"->"LeakyRelu_57.max(LeakyRelu)" [label="f32[1,64,20,20]"]
"LeakyRelu_57.mul(LeakyRelu)"->"LeakyRelu_57.max(LeakyRelu)" [label="f32[1,64,20,20]"]
"LeakyRelu_57.max(LeakyRelu)"->"Add_77(binary_add)" [label="f32[1,64,20,20]"]
"Conv_58(Conv)"->"LeakyRelu_59.mul(LeakyRelu)" [label="f32[1,64,10,10]"]
"Conv_58(Conv)"->"LeakyRelu_59.max(LeakyRelu)" [label="f32[1,64,10,10]"]
"LeakyRelu_59.mul(LeakyRelu)"->"LeakyRelu_59.max(LeakyRelu)" [label="f32[1,64,10,10]"]
"LeakyRelu_59.max(LeakyRelu)"->"Conv_118(Conv)" [label="f32[1,64,10,10]"]
"LeakyRelu_59.max(LeakyRelu)"->"Upsample_76(Upsample)" [label="f32[1,64,10,10]"]
"LeakyRelu_59.max(LeakyRelu)"->"Conv_119(Conv)" [label="f32[1,64,10,10]"]
"Upsample_76(Upsample)"->"Add_77(binary_add)" [label="f32[1,64,20,20]"]
"Add_77(binary_add)"->"Conv_78(Conv)" [label="f32[1,64,20,20]"]
"Conv_78(Conv)"->"LeakyRelu_79.mul(LeakyRelu)" [label="f32[1,64,20,20]"]
"Conv_78(Conv)"->"LeakyRelu_79.max(LeakyRelu)" [label="f32[1,64,20,20]"]
"LeakyRelu_79.mul(LeakyRelu)"->"LeakyRelu_79.max(LeakyRelu)" [label="f32[1,64,20,20]"]
"LeakyRelu_79.max(LeakyRelu)"->"Conv_109(Conv)" [label="f32[1,64,20,20]"]
"LeakyRelu_79.max(LeakyRelu)"->"Conv_110(Conv)" [label="f32[1,64,20,20]"]
"LeakyRelu_79.max(LeakyRelu)"->"Upsample_96(Upsample)" [label="f32[1,64,20,20]"]
"Upsample_96(Upsample)"->"Add_97(binary_add)" [label="f32[1,64,40,40]"]
"Add_97(binary_add)"->"Conv_98(Conv)" [label="f32[1,64,40,40]"]
"Conv_98(Conv)"->"LeakyRelu_99.mul(LeakyRelu)" [label="f32[1,64,40,40]"]
"Conv_98(Conv)"->"LeakyRelu_99.max(LeakyRelu)" [label="f32[1,64,40,40]"]
"LeakyRelu_99.mul(LeakyRelu)"->"LeakyRelu_99.max(LeakyRelu)" [label="f32[1,64,40,40]"]
"LeakyRelu_99.max(LeakyRelu)"->"Conv_101(Conv)" [label="f32[1,64,40,40]"]
"LeakyRelu_99.max(LeakyRelu)"->"Conv_100(Conv)" [label="f32[1,64,40,40]"]
"Conv_100(Conv)"->"Concat_107(Concat)" [label="f32[1,32,40,40]"]
"Conv_101(Conv)"->"LeakyRelu_102.max(LeakyRelu)" [label="f32[1,16,40,40]"]
"Conv_101(Conv)"->"LeakyRelu_102.mul(LeakyRelu)" [label="f32[1,16,40,40]"]
"LeakyRelu_102.mul(LeakyRelu)"->"LeakyRelu_102.max(LeakyRelu)" [label="f32[1,16,40,40]"]
"LeakyRelu_102.max(LeakyRelu)"->"Conv_103(Conv)" [label="f32[1,16,40,40]"]
"LeakyRelu_102.max(LeakyRelu)"->"Conv_104(Conv)" [label="f32[1,16,40,40]"]
"Conv_103(Conv)"->"Concat_107(Concat)" [label="f32[1,16,40,40]"]
"Conv_104(Conv)"->"LeakyRelu_105.mul(LeakyRelu)" [label="f32[1,16,40,40]"]
"Conv_104(Conv)"->"LeakyRelu_105.max(LeakyRelu)" [label="f32[1,16,40,40]"]
"LeakyRelu_105.mul(LeakyRelu)"->"LeakyRelu_105.max(LeakyRelu)" [label="f32[1,16,40,40]"]
"LeakyRelu_105.max(LeakyRelu)"->"Conv_106(Conv)" [label="f32[1,16,40,40]"]
"Conv_106(Conv)"->"Concat_107(Concat)" [label="f32[1,16,40,40]"]
"Concat_107(Concat)"->"Relu_108.max(Relu)" [label="f32[1,64,40,40]"]
"Relu_108.max(Relu)"->"Conv_152(Conv)" [label="f32[1,64,40,40]"]
"Relu_108.max(Relu)"->"Conv_127(Conv)" [label="f32[1,64,40,40]"]
"Relu_108.max(Relu)"->"Conv_177(Conv)" [label="f32[1,64,40,40]"]
"Conv_109(Conv)"->"Concat_116(Concat)" [label="f32[1,32,20,20]"]
"Conv_110(Conv)"->"LeakyRelu_111.mul(LeakyRelu)" [label="f32[1,16,20,20]"]
"Conv_110(Conv)"->"LeakyRelu_111.max(LeakyRelu)" [label="f32[1,16,20,20]"]
"LeakyRelu_111.mul(LeakyRelu)"->"LeakyRelu_111.max(LeakyRelu)" [label="f32[1,16,20,20]"]
"LeakyRelu_111.max(LeakyRelu)"->"Conv_112(Conv)" [label="f32[1,16,20,20]"]
"LeakyRelu_111.max(LeakyRelu)"->"Conv_113(Conv)" [label="f32[1,16,20,20]"]
"Conv_112(Conv)"->"Concat_116(Concat)" [label="f32[1,16,20,20]"]
"Conv_113(Conv)"->"LeakyRelu_114.max(LeakyRelu)" [label="f32[1,16,20,20]"]
"Conv_113(Conv)"->"LeakyRelu_114.mul(LeakyRelu)" [label="f32[1,16,20,20]"]
"LeakyRelu_114.mul(LeakyRelu)"->"LeakyRelu_114.max(LeakyRelu)" [label="f32[1,16,20,20]"]
"LeakyRelu_114.max(LeakyRelu)"->"Conv_115(Conv)" [label="f32[1,16,20,20]"]
"Conv_115(Conv)"->"Concat_116(Concat)" [label="f32[1,16,20,20]"]
"Concat_116(Concat)"->"Relu_117.max(Relu)" [label="f32[1,64,20,20]"]
"Relu_117.max(Relu)"->"Conv_160(Conv)" [label="f32[1,64,20,20]"]
"Relu_117.max(Relu)"->"Conv_185(Conv)" [label="f32[1,64,20,20]"]
"Relu_117.max(Relu)"->"Conv_135(Conv)" [label="f32[1,64,20,20]"]
"Conv_118(Conv)"->"Concat_125(Concat)" [label="f32[1,32,10,10]"]
"Conv_119(Conv)"->"LeakyRelu_120.mul(LeakyRelu)" [label="f32[1,16,10,10]"]
"Conv_119(Conv)"->"LeakyRelu_120.max(LeakyRelu)" [label="f32[1,16,10,10]"]
"LeakyRelu_120.mul(LeakyRelu)"->"LeakyRelu_120.max(LeakyRelu)" [label="f32[1,16,10,10]"]
"LeakyRelu_120.max(LeakyRelu)"->"Conv_121(Conv)" [label="f32[1,16,10,10]"]
"LeakyRelu_120.max(LeakyRelu)"->"Conv_122(Conv)" [label="f32[1,16,10,10]"]
"Conv_121(Conv)"->"Concat_125(Concat)" [label="f32[1,16,10,10]"]
"Conv_122(Conv)"->"LeakyRelu_123.mul(LeakyRelu)" [label="f32[1,16,10,10]"]
"Conv_122(Conv)"->"LeakyRelu_123.max(LeakyRelu)" [label="f32[1,16,10,10]"]
"LeakyRelu_123.mul(LeakyRelu)"->"LeakyRelu_123.max(LeakyRelu)" [label="f32[1,16,10,10]"]
"LeakyRelu_123.max(LeakyRelu)"->"Conv_124(Conv)" [label="f32[1,16,10,10]"]
"Conv_124(Conv)"->"Concat_125(Concat)" [label="f32[1,16,10,10]"]
"Concat_125(Concat)"->"Relu_126.max(Relu)" [label="f32[1,64,10,10]"]
"Relu_126.max(Relu)"->"Conv_193(Conv)" [label="f32[1,64,10,10]"]
"Relu_126.max(Relu)"->"Conv_143(Conv)" [label="f32[1,64,10,10]"]
"Relu_126.max(Relu)"->"Conv_168(Conv)" [label="f32[1,64,10,10]"]
"Conv_127(Conv)"->"475" [label="f32[1,8,40,40]"]
"Conv_135(Conv)"->"487" [label="f32[1,8,20,20]"]
"Conv_143(Conv)"->"499" [label="f32[1,8,10,10]"]
"Conv_152(Conv)"->"512" [label="f32[1,4,40,40]"]
"Conv_160(Conv)"->"524" [label="f32[1,4,20,20]"]
"Conv_168(Conv)"->"536" [label="f32[1,4,10,10]"]
"Conv_177(Conv)"->"549" [label="f32[1,20,40,40]"]
"Conv_185(Conv)"->"561" [label="f32[1,20,20,20]"]
"Conv_193(Conv)"->"573" [label="f32[1,20,10,10]"]
"input0"->"Conv_0(Conv)" [label="f32[1,3,320,320]"]
}
